…
.py:265: UserWarning: The output shape of `ResNet50(include_top=False)` has been changed since Keras 2.2.0.\n","  warnings.warn('The output shape of `ResNet50(include_top=False)` '\n"],"name":"stderr"},{"output_type":"stream","text":["Model: \"resnet50\"\n","__________________________________________________________________________________________________\n","Layer (type)                    Output Shape         Param #     Connected to                     \n","==================================================================================================\n","input_3 (InputLayer)            (None, 224, 224, 3)  0                                            \n","__________________________________________________________________________________________________\n","conv1_pad (ZeroPadding2D)       (None, 230, 230, 3)  0           input_3[0][0]                    \n","__________________________________________________________________________________________________\n","conv1 (Conv2D)                  (None, 112, 112, 64) 9472        conv1_pad[0][0]                  \n","__________________________________________________________________________________________________\n","bn_conv1 (BatchNormalization)   (None, 112, 112, 64) 256         conv1[0][0]                      \n","__________________________________________________________________________________________________\n","activation_99 (Activation)      (None, 112, 112, 64) 0           bn_conv1[0][0]                   \n","__________________________________________________________________________________________________\n","pool1_pad (ZeroPadding2D)       (None, 114, 114, 64) 0           activation_99[0][0]              \n","__________________________________________________________________________________________________\n","max_pooling2d_3 (MaxPooling2D)  (None, 56, 56, 64)   0           pool1_pad[0][0]                  \n","__________________________________________________________________________________________________\n","res2a_branch2a (Conv2D)         (None, 56, 56, 64)   4160        max_pooling2d_3[0][0]            \n","__________________________________________________________________________________________________\n","bn2a_branch2a (BatchNormalizati (None, 56, 56, 64)   256         res2a_branch2a[0][0]             \n","__________________________________________________________________________________________________\n","activation_100 (Activation)     (None, 56, 56, 64)   0           bn2a_branch2a[0][0]              \n","__________________________________________________________________________________________________\n","res2a_branch2b (Conv2D)         (None, 56, 56, 64)   36928       activation_100[0][0]             \n","__________________________________________________________________________________________________\n","bn2a_branch2b (BatchNormalizati (None, 56, 56, 64)   256         res2a_branch2b[0][0]             \n","__________________________________________________________________________________________________\n","activation_101 (Activation)     (None, 56, 56, 64)   0           bn2a_branch2b[0][0]              \n","__________________________________________________________________________________________________\n","res2a_branch2c (Conv2D)         (None, 56, 56, 256)  16640       activation_101[0][0]             \n","__________________________________________________________________________________________________\n","res2a_branch1 (Conv2D)          (None, 56, 56, 256)  16640       max_pooling2d_3[0][0]            \n","__________________________________________________________________________________________________\n","bn2a_branch2c (BatchNormalizati (None, 56, 56, 256)  1024        res2a_branch2c[0][0]             \n","__________________________________________________________________________________________________\n","bn2a_branch1 (BatchNormalizatio (None, 56, 56, 256)  1024        res2a_branch1[0][0]              \n","__________________________________________________________________________________________________\n","add_33 (Add)                    (None, 56, 56, 256)  0           bn2a_branch2c[0][0]              \n","                                                                 bn2a_branch1[0][0]               \n","__________________________________________________________________________________________________\n","activation_102 (Activation)     (None, 56, 56, 256)  0           add_33[0][0]                     \n","__________________________________________________________________________________________________\n","res2b_branch2a (Conv2D)         (None, 56, 56, 64)   16448       activation_102[0][0]             \n","__________________________________________________________________________________________________\n","bn2b_branch2a (BatchNormalizati (None, 56, 56, 64)   256         res2b_branch2a[0][0]             \n","__________________________________________________________________________________________________\n","activation_103 (Activation)     (None, 56, 56, 64)   0           bn2b_branch2a[0][0]              \n","__________________________________________________________________________________________________\n","res2b_branch2b (Conv2D)         (None, 56, 56, 64)   36928       activation_103[0][0]             \n","__________________________________________________________________________________________________\n","bn2b_branch2b (BatchNormalizati (None, 56, 56, 64)   256         res2b_branch2b[0][0]             \n","__________________________________________________________________________________________________\n","activation_104 (Activation)     (None, 56, 56, 64)   0           bn2b_branch2b[0][0]              \n","__________________________________________________________________________________________________\n","res2b_branch2c (Conv2D)         (None, 56, 56, 256)  16640       activation_104[0][0]             \n","__________________________________________________________________________________________________\n","bn2b_branch2c (BatchNormalizati (None, 56, 56, 256)  1024        res2b_branch2c[0][0]             \n","__________________________________________________________________________________________________\n","add_34 (Add)                    (None, 56, 56, 256)  0           bn2b_branch2c[0][0]              \n","                                                                 activation_102[0][0]             \n","__________________________________________________________________________________________________\n","activation_105 (Activation)     (None, 56, 56, 256)  0           add_34[0][0]                     \n","__________________________________________________________________________________________________\n","res2c_branch2a (Conv2D)         (None, 56, 56, 64)   16448       activation_105[0][0]             \n","__________________________________________________________________________________________________\n","bn2c_branch2a (BatchNormalizati (None, 56, 56, 64)   256         res2c_branch2a[0][0]             \n","__________________________________________________________________________________________________\n","activation_106 (Activation)     (None, 56, 56, 64)   0           bn2c_branch2a[0][0]              \n","__________________________________________________________________________________________________\n","res2c_branch2b (Conv2D)         (None, 56, 56, 64)   36928       activation_106[0][0]             \n","__________________________________________________________________________________________________\n","bn2c_branch2b (BatchNormalizati (None, 56, 56, 64)   256         res2c_branch2b[0][0]             \n","__________________________________________________________________________________________________\n","activation_107 (Activation)     (None, 56, 56, 64)   0           bn2c_branch2b[0][0]              \n","__________________________________________________________________________________________________\n","res2c_branch2c (Conv2D)         (None, 56, 56, 256)  16640       activation_107[0][0]             \n","__________________________________________________________________________________________________\n","bn2c_branch2c (BatchNormalizati (None, 56, 56, 256)  1024        res2c_branch2c[0][0]             \n","__________________________________________________________________________________________________\n","add_35 (Add)                    (None, 56, 56, 256)  0           bn2c_branch2c[0][0]              \n","                                                                 activation_105[0][0]             \n","__________________________________________________________________________________________________\n","activation_108 (Activation)     (None, 56, 56, 256)  0           add_35[0][0]                     \n","__________________________________________________________________________________________________\n","res3a_branch2a (Conv2D)         (None, 28, 28, 128)  32896       activation_108[0][0]             \n","__________________________________________________________________________________________________\n","bn3a_branch2a (BatchNormalizati (None, 28, 28, 128)  512         res3a_branch2a[0][0]             \n","__________________________________________________________________________________________________\n","activation_109 (Activation)     (None, 28, 28, 128)  0           bn3a_branch2a[0][0]              \n","__________________________________________________________________________________________________\n","res3a_branch2b (Conv2D)         (None, 28, 28, 128)  147584      activation_109[0][0]             \n","__________________________________________________________________________________________________\n","bn3a_branch2b (BatchNormalizati (None, 28, 28, 128)  512         res3a_branch2b[0][0]             \n","__________________________________________________________________________________________________\n","activation_110 (Activation)     (None, 28, 28, 128)  0           bn3a_branch2b[0][0]              \n","__________________________________________________________________________________________________\n","res3a_branch2c (Conv2D)         (None, 28, 28, 512)  66048       activation_110[0][0]             \n","__________________________________________________________________________________________________\n","res3a_branch1 (Conv2D)          (None, 28, 28, 512)  131584      activation_108[0][0]             \n","__________________________________________________________________________________________________\n","bn3a_branch2c (BatchNormalizati (None, 28, 28, 512)  2048        res3a_branch2c[0][0]             \n","__________________________________________________________________________________________________\n","bn3a_branch1 (BatchNormalizatio (None, 28, 28, 512)  2048        res3a_branch1[0][0]              \n","__________________________________________________________________________________________________\n","add_36 (Add)                    (None, 28, 28, 512)  0           bn3a_branch2c[0][0]              \n","                                                                 bn3a_branch1[0][0]               \n","__________________________________________________________________________________________________\n","activation_111 (Activation)     (None, 28, 28, 512)  0           add_36[0][0]                     \n","__________________________________________________________________________________________________\n","res3b_branch2a (Conv2D)         (None, 28, 28, 128)  65664       activation_111[0][0]             \n","__________________________________________________________________________________________________\n","bn3b_branch2a (BatchNormalizati (None, 28, 28, 128)  512         res3b_branch2a[0][0]             \n","__________________________________________________________________________________________________\n","activation_112 (Activation)     (None, 28, 28, 128)  0           bn3b_branch2a[0][0]              \n","__________________________________________________________________________________________________\n","res3b_branch2b (Conv2D)         (None, 28, 28, 128)  147584      activation_112[0][0]             \n","__________________________________________________________________________________________________\n","bn3b_branch2b (BatchNormalizati (None, 28, 28, 128)  512         res3b_branch2b[0][0]             \n","__________________________________________________________________________________________________\n","activation_113 (Activation)     (None, 28, 28, 128)  0           bn3b_branch2b[0][0]              \n","__________________________________________________________________________________________________\n","res3b_branch2c (Conv2D)         (None, 28, 28, 512)  66048       activation_113[0][0]             \n","__________________________________________________________________________________________________\n","bn3b_branch2c (BatchNormalizati (None, 28, 28, 512)  2048        res3b_branch2c[0][0]             \n","__________________________________________________________________________________________________\n","add_37 (Add)                    (None, 28, 28, 512)  0           bn3b_branch2c[0][0]              \n","                                                                 activation_111[0][0]             \n","__________________________________________________________________________________________________\n","activation_114 (Activation)     (None, 28, 28, 512)  0           add_37[0][0]                     \n","__________________________________________________________________________________________________\n","res3c_branch2a (Conv2D)         (None, 28, 28, 128)  65664       activation_114[0][0]             \n","__________________________________________________________________________________________________\n","bn3c_branch2a (BatchNormalizati (None, 28, 28, 128)  512         res3c_branch2a[0][0]             \n","__________________________________________________________________________________________________\n","activation_115 (Activation)     (None, 28, 28, 128)  0           bn3c_branch2a[0][0]              \n","__________________________________________________________________________________________________\n","res3c_branch2b (Conv2D)         (None, 28, 28, 128)  147584      activation_115[0][0]             \n","__________________________________________________________________________________________________\n","bn3c_branch2b (BatchNormalizati (None, 28, 28, 128)  512         res3c_branch2b[0][0]             \n","__________________________________________________________________________________________________\n","activation_116 (Activation)     (None, 28, 28, 128)  0           bn3c_branch2b[0][0]              \n","__________________________________________________________________________________________________\n","res3c_branch2c (Conv2D)         (None, 28, 28, 512)  66048       activation_116[0][0]             \n","__________________________________________________________________________________________________\n","bn3c_branch2c (BatchNormalizati (None, 28, 28, 512)  2048        res3c_branch2c[0][0]             \n","__________________________________________________________________________________________________\n","add_38 (Add)                    (None, 28, 28, 512)  0           bn3c_branch2c[0][0]              \n","                                                                 activation_114[0][0]             \n","__________________________________________________________________________________________________\n","activation_117 (Activation)     (None, 28, 28, 512)  0           add_38[0][0]                     \n","__________________________________________________________________________________________________\n","res3d_branch2a (Conv2D)         (None, 28, 28, 128)  65664       activation_117[0][0]             \n","__________________________________________________________________________________________________\n","bn3d_branch2a (BatchNormalizati (None, 28, 28, 128)  512         res3d_branch2a[0][0]             \n","__________________________________________________________________________________________________\n","activation_118 (Activation)     (None, 28, 28, 128)  0           bn3d_branch2a[0][0]              \n","__________________________________________________________________________________________________\n","res3d_branch2b (Conv2D)         (None, 28, 28, 128)  147584      activation_118[0][0]             \n","__________________________________________________________________________________________________\n","bn3d_branch2b (BatchNormalizati (None, 28, 28, 128)  512         res3d_branch2b[0][0]             \n","__________________________________________________________________________________________________\n","activation_119 (Activation)     (None, 28, 28, 128)  0           bn3d_branch2b[0][0]              \n","__________________________________________________________________________________________________\n","res3d_branch2c (Conv2D)         (None, 28, 28, 512)  66048       activation_119[0][0]             \n","__________________________________________________________________________________________________\n","bn3d_branch2c (BatchNormalizati (None, 28, 28, 512)  2048        res3d_branch2c[0][0]             \n","__________________________________________________________________________________________________\n","add_39 (Add)                    (None, 28, 28, 512)  0           bn3d_branch2c[0][0]              \n","                                                                 activation_117[0][0]             \n","__________________________________________________________________________________________________\n","activation_120 (Activation)     (None, 28, 28, 512)  0           add_39[0][0]                     \n","__________________________________________________________________________________________________\n","res4a_branch2a (Conv2D)         (None, 14, 14, 256)  131328      activation_120[0][0]             \n","__________________________________________________________________________________________________\n","bn4a_branch2a (BatchNormalizati (None, 14, 14, 256)  1024        res4a_branch2a[0][0]             \n","__________________________________________________________________________________________________\n","activation_121 (Activation)     (None, 14, 14, 256)  0           bn4a_branch2a[0][0]              \n","__________________________________________________________________________________________________\n","res4a_branch2b (Conv2D)         (None, 14, 14, 256)  590080      activation_121[0][0]             \n","__________________________________________________________________________________________________\n","bn4a_branch2b (BatchNormalizati (None, 14, 14, 256)  1024        res4a_branch2b[0][0]             \n","__________________________________________________________________________________________________\n","activation_122 (Activation)     (None, 14, 14, 256)  0           bn4a_branch2b[0][0]              \n","__________________________________________________________________________________________________\n","res4a_branch2c (Conv2D)         (None, 14, 14, 1024) 263168      activation_122[0][0]             \n","__________________________________________________________________________________________________\n","res4a_branch1 (Conv2D)          (None, 14, 14, 1024) 525312      activation_120[0][0]             \n","__________________________________________________________________________________________________\n","bn4a_branch2c (BatchNormalizati (None, 14, 14, 1024) 4096        res4a_branch2c[0][0]             \n","__________________________________________________________________________________________________\n","bn4a_branch1 (BatchNormalizatio (None, 14, 14, 1024) 4096        res4a_branch1[0][0]              \n","__________________________________________________________________________________________________\n","add_40 (Add)                    (None, 14, 14, 1024) 0           bn4a_branch2c[0][0]              \n","                                                                 bn4a_branch1[0][0]               \n","__________________________________________________________________________________________________\n","activation_123 (Activation)     (None, 14, 14, 1024) 0           add_40[0][0]                     \n","__________________________________________________________________________________________________\n","res4b_branch2a (Conv2D)         (None, 14, 14, 256)  262400      activation_123[0][0]             \n","__________________________________________________________________________________________________\n","bn4b_branch2a (BatchNormalizati (None, 14, 14, 256)  1024        res4b_branch2a[0][0]             \n","__________________________________________________________________________________________________\n","activation_124 (Activation)     (None, 14, 14, 256)  0           bn4b_branch2a[0][0]              \n","__________________________________________________________________________________________________\n","res4b_branch2b (Conv2D)         (None, 14, 14, 256)  590080      activation_124[0][0]             \n","__________________________________________________________________________________________________\n","bn4b_branch2b (BatchNormalizati (None, 14, 14, 256)  1024        res4b_branch2b[0][0]             \n","__________________________________________________________________________________________________\n","activation_125 (Activation)     (None, 14, 14, 256)  0           bn4b_branch2b[0][0]              \n","__________________________________________________________________________________________________\n","res4b_branch2c (Conv2D)         (None, 14, 14, 1024) 263168      activation_125[0][0]             \n","__________________________________________________________________________________________________\n","bn4b_branch2c (BatchNormalizati (None, 14, 14, 1024) 4096        res4b_branch2c[0][0]             \n","__________________________________________________________________________________________________\n","add_41 (Add)                    (None, 14, 14, 1024) 0           bn4b_branch2c[0][0]              \n","                                                                 activation_123[0][0]             \n","__________________________________________________________________________________________________\n","activation_126 (Activation)     (None, 14, 14, 1024) 0           add_41[0][0]                     \n","__________________________________________________________________________________________________\n","res4c_branch2a (Conv2D)         (None, 14, 14, 256)  262400      activation_126[0][0]             \n","__________________________________________________________________________________________________\n","bn4c_branch2a (BatchNormalizati (None, 14, 14, 256)  1024        res4c_branch2a[0][0]             \n","__________________________________________________________________________________________________\n","activation_127 (Activation)     (None, 14, 14, 256)  0           bn4c_branch2a[0][0]              \n","__________________________________________________________________________________________________\n","res4c_branch2b (Conv2D)         (None, 14, 14, 256)  590080      activation_127[0][0]             \n","__________________________________________________________________________________________________\n","bn4c_branch2b (BatchNormalizati (None, 14, 14, 256)  1024        res4c_branch2b[0][0]             \n","__________________________________________________________________________________________________\n","activation_128 (Activation)     (None, 14, 14, 256)  0           bn4c_branch2b[0][0]              \n","__________________________________________________________________________________________________\n","res4c_branch2c (Conv2D)         (None, 14, 14, 1024) 263168      activation_128[0][0]             \n","__________________________________________________________________________________________________\n","bn4c_branch2c (BatchNormalizati (None, 14, 14, 1024) 4096        res4c_branch2c[0][0]             \n","__________________________________________________________________________________________________\n","add_42 (Add)                    (None, 14, 14, 1024) 0           bn4c_branch2c[0][0]              \n","                                                                 activation_126[0][0]             \n","__________________________________________________________________________________________________\n","activation_129 (Activation)     (None, 14, 14, 1024) 0           add_42[0][0]                     \n","__________________________________________________________________________________________________\n","res4d_branch2a (Conv2D)         (None, 14, 14, 256)  262400      activation_129[0][0]             \n","__________________________________________________________________________________________________\n","bn4d_branch2a (BatchNormalizati (None, 14, 14, 256)  1024        res4d_branch2a[0][0]             \n","__________________________________________________________________________________________________\n","activation_130 (Activation)     (None, 14, 14, 256)  0           bn4d_branch2a[0][0]              \n","__________________________________________________________________________________________________\n","res4d_branch2b (Conv2D)         (None, 14, 14, 256)  590080      activation_130[0][0]             \n","__________________________________________________________________________________________________\n","bn4d_branch2b (BatchNormalizati (None, 14, 14, 256)  1024        res4d_branch2b[0][0]             \n","__________________________________________________________________________________________________\n","activation_131 (Activation)     (None, 14, 14, 256)  0           bn4d_branch2b[0][0]              \n","__________________________________________________________________________________________________\n","res4d_branch2c (Conv2D)         (None, 14, 14, 1024) 263168      activation_131[0][0]             \n","__________________________________________________________________________________________________\n","bn4d_branch2c (BatchNormalizati (None, 14, 14, 1024) 4096        res4d_branch2c[0][0]             \n","__________________________________________________________________________________________________\n","add_43 (Add)                    (None, 14, 14, 1024) 0           bn4d_branch2c[0][0]              \n","                                                                 activation_129[0][0]             \n","__________________________________________________________________________________________________\n","activation_132 (Activation)     (None, 14, 14, 1024) 0           add_43[0][0]                     \n","__________________________________________________________________________________________________\n","res4e_branch2a (Conv2D)         (None, 14, 14, 256)  262400      activation_132[0][0]             \n","__________________________________________________________________________________________________\n","bn4e_branch2a (BatchNormalizati (None, 14, 14, 256)  1024        res4e_branch2a[0][0]             \n","__________________________________________________________________________________________________\n","activation_133 (Activation)     (None, 14, 14, 256)  0           bn4e_branch2a[0][0]              \n","__________________________________________________________________________________________________\n","res4e_branch2b (Conv2D)         (None, 14, 14, 256)  590080      activation_133[0][0]             \n","__________________________________________________________________________________________________\n","bn4e_branch2b (BatchNormalizati (None, 14, 14, 256)  1024        res4e_branch2b[0][0]             \n","__________________________________________________________________________________________________\n","activation_134 (Activation)     (None, 14, 14, 256)  0           bn4e_branch2b[0][0]              \n","__________________________________________________________________________________________________\n","res4e_branch2c (Conv2D)         (None, 14, 14, 1024) 263168      activation_134[0][0]             \n","__________________________________________________________________________________________________\n","bn4e_branch2c (BatchNormalizati (None, 14, 14, 1024) 4096        res4e_branch2c[0][0]             \n","__________________________________________________________________________________________________\n","add_44 (Add)                    (None, 14, 14, 1024) 0           bn4e_branch2c[0][0]              \n","                                                                 activation_132[0][0]             \n","__________________________________________________________________________________________________\n","activation_135 (Activation)     (None, 14, 14, 1024) 0           add_44[0][0]                     \n","__________________________________________________________________________________________________\n","res4f_branch2a (Conv2D)         (None, 14, 14, 256)  262400      activation_135[0][0]             \n","__________________________________________________________________________________________________\n","bn4f_branch2a (BatchNormalizati (None, 14, 14, 256)  1024        res4f_branch2a[0][0]             \n","__________________________________________________________________________________________________\n","activation_136 (Activation)     (None, 14, 14, 256)  0           bn4f_branch2a[0][0]              \n","__________________________________________________________________________________________________\n","res4f_branch2b (Conv2D)         (None, 14, 14, 256)  590080      activation_136[0][0]             \n","__________________________________________________________________________________________________\n","bn4f_branch2b (BatchNormalizati (None, 14, 14, 256)  1024        res4f_branch2b[0][0]             \n","__________________________________________________________________________________________________\n","activation_137 (Activation)     (None, 14, 14, 256)  0           bn4f_branch2b[0][0]              \n","__________________________________________________________________________________________________\n","res4f_branch2c (Conv2D)         (None, 14, 14, 1024) 263168      activation_137[0][0]             \n","__________________________________________________________________________________________________\n","bn4f_branch2c (BatchNormalizati (None, 14, 14, 1024) 4096        res4f_branch2c[0][0]             \n","__________________________________________________________________________________________________\n","add_45 (Add)                    (None, 14, 14, 1024) 0           bn4f_branch2c[0][0]              \n","                                                                 activation_135[0][0]             \n","__________________________________________________________________________________________________\n","activation_138 (Activation)     (None, 14, 14, 1024) 0           add_45[0][0]                     \n","__________________________________________________________________________________________________\n","res5a_branch2a (Conv2D)         (None, 7, 7, 512)    524800      activation_138[0][0]             \n","__________________________________________________________________________________________________\n","bn5a_branch2a (BatchNormalizati (None, 7, 7, 512)    2048        res5a_branch2a[0][0]             \n","__________________________________________________________________________________________________\n","activation_139 (Activation)     (None, 7, 7, 512)    0           bn5a_branch2a[0][0]              \n","__________________________________________________________________________________________________\n","res5a_branch2b (Conv2D)         (None, 7, 7, 512)    2359808     activation_139[0][0]             \n","__________________________________________________________________________________________________\n","bn5a_branch2b (BatchNormalizati (None, 7, 7, 512)    2048        res5a_branch2b[0][0]             \n","__________________________________________________________________________________________________\n","activation_140 (Activation)     (None, 7, 7, 512)    0           bn5a_branch2b[0][0]              \n","__________________________________________________________________________________________________\n","res5a_branch2c (Conv2D)         (None, 7, 7, 2048)   1050624     activation_140[0][0]             \n","__________________________________________________________________________________________________\n","res5a_branch1 (Conv2D)          (None, 7, 7, 2048)   2099200     activation_138[0][0]             \n","__________________________________________________________________________________________________\n","bn5a_branch2c (BatchNormalizati (None, 7, 7, 2048)   8192        res5a_branch2c[0][0]             \n","__________________________________________________________________________________________________\n","bn5a_branch1 (BatchNormalizatio (None, 7, 7, 2048)   8192        res5a_branch1[0][0]              \n","__________________________________________________________________________________________________\n","add_46 (Add)                    (None, 7, 7, 2048)   0           bn5a_branch2c[0][0]              \n","                                                                 bn5a_branch1[0][0]               \n","__________________________________________________________________________________________________\n","activation_141 (Activation)     (None, 7, 7, 2048)   0           add_46[0][0]                     \n","__________________________________________________________________________________________________\n","res5b_branch2a (Conv2D)         (None, 7, 7, 512)    1049088     activation_141[0][0]             \n","__________________________________________________________________________________________________\n","bn5b_branch2a (BatchNormalizati (None, 7, 7, 512)    2048        res5b_branch2a[0][0]             \n","__________________________________________________________________________________________________\n","activation_142 (Activation)     (None, 7, 7, 512)    0           bn5b_branch2a[0][0]              \n","__________________________________________________________________________________________________\n","res5b_branch2b (Conv2D)         (None, 7, 7, 512)    2359808     activation_142[0][0]             \n","__________________________________________________________________________________________________\n","bn5b_branch2b (BatchNormalizati (None, 7, 7, 512)    2048        res5b_branch2b[0][0]             \n","__________________________________________________________________________________________________\n","activation_143 (Activation)     (None, 7, 7, 512)    0           bn5b_branch2b[0][0]              \n","__________________________________________________________________________________________________\n","res5b_branch2c (Conv2D)         (None, 7, 7, 2048)   1050624     activation_143[0][0]             \n","__________________________________________________________________________________________________\n","bn5b_branch2c (BatchNormalizati (None, 7, 7, 2048)   8192        res5b_branch2c[0][0]             \n","__________________________________________________________________________________________________\n","add_47 (Add)                    (None, 7, 7, 2048)   0           bn5b_branch2c[0][0]              \n","                                                                 activation_141[0][0]             \n","__________________________________________________________________________________________________\n","activation_144 (Activation)     (None, 7, 7, 2048)   0           add_47[0][0]                     \n","__________________________________________________________________________________________________\n","res5c_branch2a (Conv2D)         (None, 7, 7, 512)    1049088     activation_144[0][0]             \n","__________________________________________________________________________________________________\n","bn5c_branch2a (BatchNormalizati (None, 7, 7, 512)    2048        res5c_branch2a[0][0]             \n","__________________________________________________________________________________________________\n","activation_145 (Activation)     (None, 7, 7, 512)    0           bn5c_branch2a[0][0]              \n","__________________________________________________________________________________________________\n","res5c_branch2b (Conv2D)         (None, 7, 7, 512)    2359808     activation_145[0][0]             \n","__________________________________________________________________________________________________\n","bn5c_branch2b (BatchNormalizati (None, 7, 7, 512)    2048        res5c_branch2b[0][0]             \n","__________________________________________________________________________________________________\n","activation_146 (Activation)     (None, 7, 7, 512)    0           bn5c_branch2b[0][0]              \n","__________________________________________________________________________________________________\n","res5c_branch2c (Conv2D)         (None, 7, 7, 2048)   1050624     activation_146[0][0]             \n","__________________________________________________________________________________________________\n","bn5c_branch2c (BatchNormalizati (None, 7, 7, 2048)   8192        res5c_branch2c[0][0]             \n","__________________________________________________________________________________________________\n","add_48 (Add)                    (None, 7, 7, 2048)   0           bn5c_branch2c[0][0]              \n","                                                                 activation_144[0][0]             \n","__________________________________________________________________________________________________\n","activation_147 (Activation)     (None, 7, 7, 2048)   0           add_48[0][0]                     \n","==================================================================================================\n","Total params: 23,587,712\n","Trainable params: 23,534,592\n","Non-trainable params: 53,120\n","__________________________________________________________________________________________________\n"],"name":"stdout"}]},{"cell_type":"code","metadata":
…
re/python/ops/nn_impl.py:183: where (from tensorflow.python.ops.array_ops) is deprecated and will be removed in a future version.\n","Instructions for updating:\n","Use tf.where in 2.0, which has the same broadcast rule as np.where\n","Model: \"model_1\"\n","__________________________________________________________________________________________________\n","Layer (type)                    Output Shape         Param #     Connected to                     \n","==================================================================================================\n","input_3 (InputLayer)            (None, 224, 224, 3)  0                                            \n","__________________________________________________________________________________________________\n","conv1_pad (ZeroPadding2D)       (None, 230, 230, 3)  0           input_3[0][0]                    \n","__________________________________________________________________________________________________\n","conv1 (Conv2D)                  (None, 112, 112, 64) 9472        conv1_pad[0][0]                  \n","__________________________________________________________________________________________________\n","bn_conv1 (BatchNormalization)   (None, 112, 112, 64) 256         conv1[0][0]                      \n","__________________________________________________________________________________________________\n","activation_99 (Activation)      (None, 112, 112, 64) 0           bn_conv1[0][0]                   \n","__________________________________________________________________________________________________\n","pool1_pad (ZeroPadding2D)       (None, 114, 114, 64) 0           activation_99[0][0]              \n","__________________________________________________________________________________________________\n","max_pooling2d_3 (MaxPooling2D)  (None, 56, 56, 64)   0           pool1_pad[0][0]                  \n","__________________________________________________________________________________________________\n","res2a_branch2a (Conv2D)         (None, 56, 56, 64)   4160        max_pooling2d_3[0][0]            \n","__________________________________________________________________________________________________\n","bn2a_branch2a (BatchNormalizati (None, 56, 56, 64)   256         res2a_branch2a[0][0]             \n","__________________________________________________________________________________________________\n","activation_100 (Activation)     (None, 56, 56, 64)   0           bn2a_branch2a[0][0]              \n","__________________________________________________________________________________________________\n","res2a_branch2b (Conv2D)         (None, 56, 56, 64)   36928       activation_100[0][0]             \n","__________________________________________________________________________________________________\n","bn2a_branch2b (BatchNormalizati (None, 56, 56, 64)   256         res2a_branch2b[0][0]             \n","__________________________________________________________________________________________________\n","activation_101 (Activation)     (None, 56, 56, 64)   0           bn2a_branch2b[0][0]              \n","__________________________________________________________________________________________________\n","res2a_branch2c (Conv2D)         (None, 56, 56, 256)  16640       activation_101[0][0]             \n","__________________________________________________________________________________________________\n","res2a_branch1 (Conv2D)          (None, 56, 56, 256)  16640       max_pooling2d_3[0][0]            \n","__________________________________________________________________________________________________\n","bn2a_branch2c (BatchNormalizati (None, 56, 56, 256)  1024        res2a_branch2c[0][0]             \n","__________________________________________________________________________________________________\n","bn2a_branch1 (BatchNormalizatio (None, 56, 56, 256)  1024        res2a_branch1[0][0]              \n","__________________________________________________________________________________________________\n","add_33 (Add)                    (None, 56, 56, 256)  0           bn2a_branch2c[0][0]              \n","                                                                 bn2a_branch1[0][0]               \n","__________________________________________________________________________________________________\n","activation_102 (Activation)     (None, 56, 56, 256)  0           add_33[0][0]                     \n","__________________________________________________________________________________________________\n","res2b_branch2a (Conv2D)         (None, 56, 56, 64)   16448       activation_102[0][0]             \n","__________________________________________________________________________________________________\n","bn2b_branch2a (BatchNormalizati (None, 56, 56, 64)   256         res2b_branch2a[0][0]             \n","__________________________________________________________________________________________________\n","activation_103 (Activation)     (None, 56, 56, 64)   0           bn2b_branch2a[0][0]              \n","__________________________________________________________________________________________________\n","res2b_branch2b (Conv2D)         (None, 56, 56, 64)   36928       activation_103[0][0]             \n","__________________________________________________________________________________________________\n","bn2b_branch2b (BatchNormalizati (None, 56, 56, 64)   256         res2b_branch2b[0][0]             \n","__________________________________________________________________________________________________\n","activation_104 (Activation)     (None, 56, 56, 64)   0           bn2b_branch2b[0][0]              \n","__________________________________________________________________________________________________\n","res2b_branch2c (Conv2D)         (None, 56, 56, 256)  16640       activation_104[0][0]             \n","__________________________________________________________________________________________________\n","bn2b_branch2c (BatchNormalizati (None, 56, 56, 256)  1024        res2b_branch2c[0][0]             \n","__________________________________________________________________________________________________\n","add_34 (Add)                    (None, 56, 56, 256)  0           bn2b_branch2c[0][0]              \n","                                                                 activation_102[0][0]             \n","__________________________________________________________________________________________________\n","activation_105 (Activation)     (None, 56, 56, 256)  0           add_34[0][0]                     \n","__________________________________________________________________________________________________\n","res2c_branch2a (Conv2D)         (None, 56, 56, 64)   16448       activation_105[0][0]             \n","__________________________________________________________________________________________________\n","bn2c_branch2a (BatchNormalizati (None, 56, 56, 64)   256         res2c_branch2a[0][0]             \n","__________________________________________________________________________________________________\n","activation_106 (Activation)     (None, 56, 56, 64)   0           bn2c_branch2a[0][0]              \n","__________________________________________________________________________________________________\n","res2c_branch2b (Conv2D)         (None, 56, 56, 64)   36928       activation_106[0][0]             \n","__________________________________________________________________________________________________\n","bn2c_branch2b (BatchNormalizati (None, 56, 56, 64)   256         res2c_branch2b[0][0]             \n","__________________________________________________________________________________________________\n","activation_107 (Activation)     (None, 56, 56, 64)   0           bn2c_branch2b[0][0]              \n","__________________________________________________________________________________________________\n","res2c_branch2c (Conv2D)         (None, 56, 56, 256)  16640       activation_107[0][0]             \n","__________________________________________________________________________________________________\n","bn2c_branch2c (BatchNormalizati (None, 56, 56, 256)  1024        res2c_branch2c[0][0]             \n","__________________________________________________________________________________________________\n","add_35 (Add)                    (None, 56, 56, 256)  0           bn2c_branch2c[0][0]              \n","                                                                 activation_105[0][0]             \n","__________________________________________________________________________________________________\n","activation_108 (Activation)     (None, 56, 56, 256)  0           add_35[0][0]                     \n","__________________________________________________________________________________________________\n","res3a_branch2a (Conv2D)         (None, 28, 28, 128)  32896       activation_108[0][0]             \n","__________________________________________________________________________________________________\n","bn3a_branch2a (BatchNormalizati (None, 28, 28, 128)  512         res3a_branch2a[0][0]             \n","__________________________________________________________________________________________________\n","activation_109 (Activation)     (None, 28, 28, 128)  0           bn3a_branch2a[0][0]              \n","__________________________________________________________________________________________________\n","res3a_branch2b (Conv2D)         (None, 28, 28, 128)  147584      activation_109[0][0]             \n","__________________________________________________________________________________________________\n","bn3a_branch2b (BatchNormalizati (None, 28, 28, 128)  512         res3a_branch2b[0][0]             \n","__________________________________________________________________________________________________\n","activation_110 (Activation)     (None, 28, 28, 128)  0           bn3a_branch2b[0][0]              \n","__________________________________________________________________________________________________\n","res3a_branch2c (Conv2D)         (None, 28, 28, 512)  66048       activation_110[0][0]             \n","__________________________________________________________________________________________________\n","res3a_branch1 (Conv2D)          (None, 28, 28, 512)  131584      activation_108[0][0]             \n","__________________________________________________________________________________________________\n","bn3a_branch2c (BatchNormalizati (None, 28, 28, 512)  2048        res3a_branch2c[0][0]             \n","__________________________________________________________________________________________________\n","bn3a_branch1 (BatchNormalizatio (None, 28, 28, 512)  2048        res3a_branch1[0][0]              \n","__________________________________________________________________________________________________\n","add_36 (Add)                    (None, 28, 28, 512)  0           bn3a_branch2c[0][0]              \n","                                                                 bn3a_branch1[0][0]               \n","__________________________________________________________________________________________________\n","activation_111 (Activation)     (None, 28, 28, 512)  0           add_36[0][0]                     \n","__________________________________________________________________________________________________\n","res3b_branch2a (Conv2D)         (None, 28, 28, 128)  65664       activation_111[0][0]             \n","__________________________________________________________________________________________________\n","bn3b_branch2a (BatchNormalizati (None, 28, 28, 128)  512         res3b_branch2a[0][0]             \n","__________________________________________________________________________________________________\n","activation_112 (Activation)     (None, 28, 28, 128)  0           bn3b_branch2a[0][0]              \n","__________________________________________________________________________________________________\n","res3b_branch2b (Conv2D)         (None, 28, 28, 128)  147584      activation_112[0][0]             \n","__________________________________________________________________________________________________\n","bn3b_branch2b (BatchNormalizati (None, 28, 28, 128)  512         res3b_branch2b[0][0]             \n","__________________________________________________________________________________________________\n","activation_113 (Activation)     (None, 28, 28, 128)  0           bn3b_branch2b[0][0]              \n","__________________________________________________________________________________________________\n","res3b_branch2c (Conv2D)         (None, 28, 28, 512)  66048       activation_113[0][0]             \n","__________________________________________________________________________________________________\n","bn3b_branch2c (BatchNormalizati (None, 28, 28, 512)  2048        res3b_branch2c[0][0]             \n","__________________________________________________________________________________________________\n","add_37 (Add)                    (None, 28, 28, 512)  0           bn3b_branch2c[0][0]              \n","                                                                 activation_111[0][0]             \n","__________________________________________________________________________________________________\n","activation_114 (Activation)     (None, 28, 28, 512)  0           add_37[0][0]                     \n","__________________________________________________________________________________________________\n","res3c_branch2a (Conv2D)         (None, 28, 28, 128)  65664       activation_114[0][0]             \n","__________________________________________________________________________________________________\n","bn3c_branch2a (BatchNormalizati (None, 28, 28, 128)  512         res3c_branch2a[0][0]             \n","__________________________________________________________________________________________________\n","activation_115 (Activation)     (None, 28, 28, 128)  0           bn3c_branch2a[0][0]              \n","__________________________________________________________________________________________________\n","res3c_branch2b (Conv2D)         (None, 28, 28, 128)  147584      activation_115[0][0]             \n","__________________________________________________________________________________________________\n","bn3c_branch2b (BatchNormalizati (None, 28, 28, 128)  512         res3c_branch2b[0][0]             \n","__________________________________________________________________________________________________\n","activation_116 (Activation)     (None, 28, 28, 128)  0           bn3c_branch2b[0][0]              \n","__________________________________________________________________________________________________\n","res3c_branch2c (Conv2D)         (None, 28, 28, 512)  66048       activation_116[0][0]             \n","__________________________________________________________________________________________________\n","bn3c_branch2c (BatchNormalizati (None, 28, 28, 512)  2048        res3c_branch2c[0][0]             \n","__________________________________________________________________________________________________\n","add_38 (Add)                    (None, 28, 28, 512)  0           bn3c_branch2c[0][0]              \n","                                                                 activation_114[0][0]             \n","__________________________________________________________________________________________________\n","activation_117 (Activation)     (None, 28, 28, 512)  0           add_38[0][0]                     \n","__________________________________________________________________________________________________\n","res3d_branch2a (Conv2D)         (None, 28, 28, 128)  65664       activation_117[0][0]             \n","__________________________________________________________________________________________________\n","bn3d_branch2a (BatchNormalizati (None, 28, 28, 128)  512         res3d_branch2a[0][0]             \n","__________________________________________________________________________________________________\n","activation_118 (Activation)     (None, 28, 28, 128)  0           bn3d_branch2a[0][0]              \n","__________________________________________________________________________________________________\n","res3d_branch2b (Conv2D)         (None, 28, 28, 128)  147584      activation_118[0][0]             \n","__________________________________________________________________________________________________\n","bn3d_branch2b (BatchNormalizati (None, 28, 28, 128)  512         res3d_branch2b[0][0]             \n","__________________________________________________________________________________________________\n","activation_119 (Activation)     (None, 28, 28, 128)  0           bn3d_branch2b[0][0]              \n","__________________________________________________________________________________________________\n","res3d_branch2c (Conv2D)         (None, 28, 28, 512)  66048       activation_119[0][0]             \n","__________________________________________________________________________________________________\n","bn3d_branch2c (BatchNormalizati (None, 28, 28, 512)  2048        res3d_branch2c[0][0]             \n","__________________________________________________________________________________________________\n","add_39 (Add)                    (None, 28, 28, 512)  0           bn3d_branch2c[0][0]              \n","                                                                 activation_117[0][0]             \n","__________________________________________________________________________________________________\n","activation_120 (Activation)     (None, 28, 28, 512)  0           add_39[0][0]                     \n","__________________________________________________________________________________________________\n","res4a_branch2a (Conv2D)         (None, 14, 14, 256)  131328      activation_120[0][0]             \n","__________________________________________________________________________________________________\n","bn4a_branch2a (BatchNormalizati (None, 14, 14, 256)  1024        res4a_branch2a[0][0]             \n","__________________________________________________________________________________________________\n","activation_121 (Activation)     (None, 14, 14, 256)  0           bn4a_branch2a[0][0]              \n","__________________________________________________________________________________________________\n","res4a_branch2b (Conv2D)         (None, 14, 14, 256)  590080      activation_121[0][0]             \n","__________________________________________________________________________________________________\n","bn4a_branch2b (BatchNormalizati (None, 14, 14, 256)  1024        res4a_branch2b[0][0]             \n","__________________________________________________________________________________________________\n","activation_122 (Activation)     (None, 14, 14, 256)  0           bn4a_branch2b[0][0]              \n","__________________________________________________________________________________________________\n","res4a_branch2c (Conv2D)         (None, 14, 14, 1024) 263168      activation_122[0][0]             \n","__________________________________________________________________________________________________\n","res4a_branch1 (Conv2D)          (None, 14, 14, 1024) 525312      activation_120[0][0]             \n","__________________________________________________________________________________________________\n","bn4a_branch2c (BatchNormalizati (None, 14, 14, 1024) 4096        res4a_branch2c[0][0]             \n","__________________________________________________________________________________________________\n","bn4a_branch1 (BatchNormalizatio (None, 14, 14, 1024) 4096        res4a_branch1[0][0]              \n","__________________________________________________________________________________________________\n","add_40 (Add)                    (None, 14, 14, 1024) 0           bn4a_branch2c[0][0]              \n","                                                                 bn4a_branch1[0][0]               \n","__________________________________________________________________________________________________\n","activation_123 (Activation)     (None, 14, 14, 1024) 0           add_40[0][0]                     \n","__________________________________________________________________________________________________\n","res4b_branch2a (Conv2D)         (None, 14, 14, 256)  262400      activation_123[0][0]             \n","__________________________________________________________________________________________________\n","bn4b_branch2a (BatchNormalizati (None, 14, 14, 256)  1024        res4b_branch2a[0][0]             \n","__________________________________________________________________________________________________\n","activation_124 (Activation)     (None, 14, 14, 256)  0           bn4b_branch2a[0][0]              \n","__________________________________________________________________________________________________\n","res4b_branch2b (Conv2D)         (None, 14, 14, 256)  590080      activation_124[0][0]             \n","__________________________________________________________________________________________________\n","bn4b_branch2b (BatchNormalizati (None, 14, 14, 256)  1024        res4b_branch2b[0][0]             \n","__________________________________________________________________________________________________\n","activation_125 (Activation)     (None, 14, 14, 256)  0           bn4b_branch2b[0][0]              \n","__________________________________________________________________________________________________\n","res4b_branch2c (Conv2D)         (None, 14, 14, 1024) 263168      activation_125[0][0]             \n","__________________________________________________________________________________________________\n","bn4b_branch2c (BatchNormalizati (None, 14, 14, 1024) 4096        res4b_branch2c[0][0]             \n","__________________________________________________________________________________________________\n","add_41 (Add)                    (None, 14, 14, 1024) 0           bn4b_branch2c[0][0]              \n","                                                                 activation_123[0][0]             \n","__________________________________________________________________________________________________\n","activation_126 (Activation)     (None, 14, 14, 1024) 0           add_41[0][0]                     \n","__________________________________________________________________________________________________\n","res4c_branch2a (Conv2D)         (None, 14, 14, 256)  262400      activation_126[0][0]             \n","__________________________________________________________________________________________________\n","bn4c_branch2a (BatchNormalizati (None, 14, 14, 256)  1024        res4c_branch2a[0][0]             \n","__________________________________________________________________________________________________\n","activation_127 (Activation)     (None, 14, 14, 256)  0           bn4c_branch2a[0][0]              \n","__________________________________________________________________________________________________\n","res4c_branch2b (Conv2D)         (None, 14, 14, 256)  590080      activation_127[0][0]             \n","__________________________________________________________________________________________________\n","bn4c_branch2b (BatchNormalizati (None, 14, 14, 256)  1024        res4c_branch2b[0][0]             \n","__________________________________________________________________________________________________\n","activation_128 (Activation)     (None, 14, 14, 256)  0           bn4c_branch2b[0][0]              \n","__________________________________________________________________________________________________\n","res4c_branch2c (Conv2D)         (None, 14, 14, 1024) 263168      activation_128[0][0]             \n","__________________________________________________________________________________________________\n","bn4c_branch2c (BatchNormalizati (None, 14, 14, 1024) 4096        res4c_branch2c[0][0]             \n","__________________________________________________________________________________________________\n","add_42 (Add)                    (None, 14, 14, 1024) 0           bn4c_branch2c[0][0]              \n","                                                                 activation_126[0][0]             \n","__________________________________________________________________________________________________\n","activation_129 (Activation)     (None, 14, 14, 1024) 0           add_42[0][0]                     \n","__________________________________________________________________________________________________\n","res4d_branch2a (Conv2D)         (None, 14, 14, 256)  262400      activation_129[0][0]             \n","__________________________________________________________________________________________________\n","bn4d_branch2a (BatchNormalizati (None, 14, 14, 256)  1024        res4d_branch2a[0][0]             \n","__________________________________________________________________________________________________\n","activation_130 (Activation)     (None, 14, 14, 256)  0           bn4d_branch2a[0][0]              \n","__________________________________________________________________________________________________\n","res4d_branch2b (Conv2D)         (None, 14, 14, 256)  590080      activation_130[0][0]             \n","__________________________________________________________________________________________________\n","bn4d_branch2b (BatchNormalizati (None, 14, 14, 256)  1024        res4d_branch2b[0][0]             \n","__________________________________________________________________________________________________\n","activation_131 (Activation)     (None, 14, 14, 256)  0           bn4d_branch2b[0][0]              \n","__________________________________________________________________________________________________\n","res4d_branch2c (Conv2D)         (None, 14, 14, 1024) 263168      activation_131[0][0]             \n","__________________________________________________________________________________________________\n","bn4d_branch2c (BatchNormalizati (None, 14, 14, 1024) 4096        res4d_branch2c[0][0]             \n","__________________________________________________________________________________________________\n","add_43 (Add)                    (None, 14, 14, 1024) 0           bn4d_branch2c[0][0]              \n","                                                                 activation_129[0][0]             \n","__________________________________________________________________________________________________\n","activation_132 (Activation)     (None, 14, 14, 1024) 0           add_43[0][0]                     \n","__________________________________________________________________________________________________\n","res4e_branch2a (Conv2D)         (None, 14, 14, 256)  262400      activation_132[0][0]             \n","__________________________________________________________________________________________________\n","bn4e_branch2a (BatchNormalizati (None, 14, 14, 256)  1024        res4e_branch2a[0][0]             \n","__________________________________________________________________________________________________\n","activation_133 (Activation)     (None, 14, 14, 256)  0           bn4e_branch2a[0][0]              \n","__________________________________________________________________________________________________\n","res4e_branch2b (Conv2D)         (None, 14, 14, 256)  590080      activation_133[0][0]             \n","__________________________________________________________________________________________________\n","bn4e_branch2b (BatchNormalizati (None, 14, 14, 256)  1024        res4e_branch2b[0][0]             \n","__________________________________________________________________________________________________\n","activation_134 (Activation)     (None, 14, 14, 256)  0           bn4e_branch2b[0][0]              \n","__________________________________________________________________________________________________\n","res4e_branch2c (Conv2D)         (None, 14, 14, 1024) 263168      activation_134[0][0]             \n","__________________________________________________________________________________________________\n","bn4e_branch2c (BatchNormalizati (None, 14, 14, 1024) 4096        res4e_branch2c[0][0]             \n","__________________________________________________________________________________________________\n","add_44 (Add)                    (None, 14, 14, 1024) 0           bn4e_branch2c[0][0]              \n","                                                                 activation_132[0][0]             \n","__________________________________________________________________________________________________\n","activation_135 (Activation)     (None, 14, 14, 1024) 0           add_44[0][0]                     \n","__________________________________________________________________________________________________\n","res4f_branch2a (Conv2D)         (None, 14, 14, 256)  262400      activation_135[0][0]             \n","__________________________________________________________________________________________________\n","bn4f_branch2a (BatchNormalizati (None, 14, 14, 256)  1024        res4f_branch2a[0][0]             \n","__________________________________________________________________________________________________\n","activation_136 (Activation)     (None, 14, 14, 256)  0           bn4f_branch2a[0][0]              \n","__________________________________________________________________________________________________\n","res4f_branch2b (Conv2D)         (None, 14, 14, 256)  590080      activation_136[0][0]             \n","__________________________________________________________________________________________________\n","bn4f_branch2b (BatchNormalizati (None, 14, 14, 256)  1024        res4f_branch2b[0][0]             \n","__________________________________________________________________________________________________\n","activation_137 (Activation)     (None, 14, 14, 256)  0           bn4f_branch2b[0][0]              \n","__________________________________________________________________________________________________\n","res4f_branch2c (Conv2D)         (None, 14, 14, 1024) 263168      activation_137[0][0]             \n","__________________________________________________________________________________________________\n","bn4f_branch2c (BatchNormalizati (None, 14, 14, 1024) 4096        res4f_branch2c[0][0]             \n","__________________________________________________________________________________________________\n","add_45 (Add)                    (None, 14, 14, 1024) 0           bn4f_branch2c[0][0]              \n","                                                                 activation_135[0][0]             \n","__________________________________________________________________________________________________\n","activation_138 (Activation)     (None, 14, 14, 1024) 0           add_45[0][0]                     \n","__________________________________________________________________________________________________\n","res5a_branch2a (Conv2D)         (None, 7, 7, 512)    524800      activation_138[0][0]             \n","__________________________________________________________________________________________________\n","bn5a_branch2a (BatchNormalizati (None, 7, 7, 512)    2048        res5a_branch2a[0][0]             \n","__________________________________________________________________________________________________\n","activation_139 (Activation)     (None, 7, 7, 512)    0           bn5a_branch2a[0][0]              \n","__________________________________________________________________________________________________\n","res5a_branch2b (Conv2D)         (None, 7, 7, 512)    2359808     activation_139[0][0]             \n","__________________________________________________________________________________________________\n","bn5a_branch2b (BatchNormalizati (None, 7, 7, 512)    2048        res5a_branch2b[0][0]             \n","__________________________________________________________________________________________________\n","activation_140 (Activation)     (None, 7, 7, 512)    0           bn5a_branch2b[0][0]              \n","__________________________________________________________________________________________________\n","res5a_branch2c (Conv2D)         (None, 7, 7, 2048)   1050624     activation_140[0][0]             \n","__________________________________________________________________________________________________\n","res5a_branch1 (Conv2D)          (None, 7, 7, 2048)   2099200     activation_138[0][0]             \n","__________________________________________________________________________________________________\n","bn5a_branch2c (BatchNormalizati (None, 7, 7, 2048)   8192        res5a_branch2c[0][0]             \n","__________________________________________________________________________________________________\n","bn5a_branch1 (BatchNormalizatio (None, 7, 7, 2048)   8192        res5a_branch1[0][0]              \n","__________________________________________________________________________________________________\n","add_46 (Add)                    (None, 7, 7, 2048)   0           bn5a_branch2c[0][0]              \n","                                                                 bn5a_branch1[0][0]               \n","__________________________________________________________________________________________________\n","activation_141 (Activation)     (None, 7, 7, 2048)   0           add_46[0][0]                     \n","__________________________________________________________________________________________________\n","res5b_branch2a (Conv2D)         (None, 7, 7, 512)    1049088     activation_141[0][0]             \n","__________________________________________________________________________________________________\n","bn5b_branch2a (BatchNormalizati (None, 7, 7, 512)    2048        res5b_branch2a[0][0]             \n","__________________________________________________________________________________________________\n","activation_142 (Activation)     (None, 7, 7, 512)    0           bn5b_branch2a[0][0]              \n","__________________________________________________________________________________________________\n","res5b_branch2b (Conv2D)         (None, 7, 7, 512)    2359808     activation_142[0][0]             \n","__________________________________________________________________________________________________\n","bn5b_branch2b (BatchNormalizati (None, 7, 7, 512)    2048        res5b_branch2b[0][0]             \n","__________________________________________________________________________________________________\n","activation_143 (Activation)     (None, 7, 7, 512)    0           bn5b_branch2b[0][0]              \n","__________________________________________________________________________________________________\n","res5b_branch2c (Conv2D)         (None, 7, 7, 2048)   1050624     activation_143[0][0]             \n","__________________________________________________________________________________________________\n","bn5b_branch2c (BatchNormalizati (None, 7, 7, 2048)   8192        res5b_branch2c[0][0]             \n","__________________________________________________________________________________________________\n","add_47 (Add)                    (None, 7, 7, 2048)   0           bn5b_branch2c[0][0]              \n","                                                                 activation_141[0][0]             \n","__________________________________________________________________________________________________\n","activation_144 (Activation)     (None, 7, 7, 2048)   0           add_47[0][0]                     \n","__________________________________________________________________________________________________\n","res5c_branch2a (Conv2D)         (None, 7, 7, 512)    1049088     activation_144[0][0]             \n","__________________________________________________________________________________________________\n","bn5c_branch2a (BatchNormalizati (None, 7, 7, 512)    2048        res5c_branch2a[0][0]             \n","__________________________________________________________________________________________________\n","activation_145 (Activation)     (None, 7, 7, 512)    0           bn5c_branch2a[0][0]              \n","__________________________________________________________________________________________________\n","res5c_branch2b (Conv2D)         (None, 7, 7, 512)    2359808     activation_145[0][0]             \n","__________________________________________________________________________________________________\n","bn5c_branch2b (BatchNormalizati (None, 7, 7, 512)    2048        res5c_branch2b[0][0]             \n","__________________________________________________________________________________________________\n","activation_146 (Activation)     (None, 7, 7, 512)    0           bn5c_branch2b[0][0]              \n","__________________________________________________________________________________________________\n","res5c_branch2c (Conv2D)         (None, 7, 7, 2048)   1050624     activation_146[0][0]             \n","__________________________________________________________________________________________________\n","bn5c_branch2c (BatchNormalizati (None, 7, 7, 2048)   8192        res5c_branch2c[0][0]             \n","__________________________________________________________________________________________________\n","add_48 (Add)                    (None, 7, 7, 2048)   0           bn5c_branch2c[0][0]              \n","                                                                 activation_144[0][0]             \n","__________________________________________________________________________________________________\n","activation_147 (Activation)     (None, 7, 7, 2048)   0           add_48[0][0]                     \n","__________________________________________________________________________________________________\n","global_average_pooling2d_1 (Glo (None, 2048)         0           activation_147[0][0]             \n","__________________________________________________________________________________________________\n","dense_1 (Dense)                 (None, 1024)         2098176     global_average_pooling2d_1[0][0] \n","__________________________________________________________________________________________________\n","dropout_1 (Dropout)             (None, 1024)         0           dense_1[0][0]                    \n","__________________________________________________________________________________________________\n","dense_2 (Dense)                 (None, 1)            1025        dropout_1[0][0]                  \n","==================================================================================================\n","Total params: 25,686,913\n","Trainable params: 2,099,201\n","Non-trainable params: 23,587,712\n","__________________________________________________________________________________________________\n"],"name":"stdout"}]},{"cell_type":"code","metadata":
…
